…
[HSTWAVE:test:PEMS_BAY] 2026-02-07 16:16:11,025 - INFO - NoneScaler
[HSTWAVE:test:PEMS_BAY] 2026-02-07 16:16:16,607 - INFO - HSTWAVE(
[HSTWAVE:test:PEMS_BAY]   (stg_blocks): ModuleList(
[HSTWAVE:test:PEMS_BAY]     (0): MSDTHGTEncoderSimplified(
[HSTWAVE:test:PEMS_BAY]       (mswt1): MSWT(
[HSTWAVE:test:PEMS_BAY]         (gtu_scales): ModuleList(
[HSTWAVE:test:PEMS_BAY]           (0): GTU(
[HSTWAVE:test:PEMS_BAY]             (tanh): Tanh()
[HSTWAVE:test:PEMS_BAY]             (sigmoid): Sigmoid()
[HSTWAVE:test:PEMS_BAY]             (conv): CausalConv2d(1, 128, kernel_size=(1, 1), stride=(1, 1))
[HSTWAVE:test:PEMS_BAY]             (w_conv): Conv2d(1, 1, kernel_size=(1, 1), stride=(1, 1))
[HSTWAVE:test:PEMS_BAY]             (align): Align(
[HSTWAVE:test:PEMS_BAY]               (align_conv): Conv2d(1, 64, kernel_size=(1, 1), stride=(1, 1))
[HSTWAVE:test:PEMS_BAY]             )
[HSTWAVE:test:PEMS_BAY]           )
[HSTWAVE:test:PEMS_BAY]           (1): GTU(
[HSTWAVE:test:PEMS_BAY]             (tanh): Tanh()
[HSTWAVE:test:PEMS_BAY]             (sigmoid): Sigmoid()
[HSTWAVE:test:PEMS_BAY]             (conv): CausalConv2d(1, 128, kernel_size=(1, 2), stride=(1, 1))
[HSTWAVE:test:PEMS_BAY]             (w_conv): Conv2d(1, 1, kernel_size=(1, 1), stride=(1, 1))
[HSTWAVE:test:PEMS_BAY]             (align): Align(
[HSTWAVE:test:PEMS_BAY]               (align_conv): Conv2d(1, 64, kernel_size=(1, 1), stride=(1, 1))
[HSTWAVE:test:PEMS_BAY]             )
[HSTWAVE:test:PEMS_BAY]           )
[HSTWAVE:test:PEMS_BAY]           (2): GTU(
[HSTWAVE:test:PEMS_BAY]             (tanh): Tanh()
[HSTWAVE:test:PEMS_BAY]             (sigmoid): Sigmoid()
[HSTWAVE:test:PEMS_BAY]             (conv): CausalConv2d(1, 128, kernel_size=(1, 3), stride=(1, 1))
[HSTWAVE:test:PEMS_BAY]             (w_conv): Conv2d(1, 1, kernel_size=(1, 1), stride=(1, 1))
[HSTWAVE:test:PEMS_BAY]             (align): Align(
[HSTWAVE:test:PEMS_BAY]               (align_conv): Conv2d(1, 64, kernel_size=(1, 1), stride=(1, 1))
[HSTWAVE:test:PEMS_BAY]             )
[HSTWAVE:test:PEMS_BAY]           )
[HSTWAVE:test:PEMS_BAY]         )
[HSTWAVE:test:PEMS_BAY]         (transformer_layers): ModuleList(
[HSTWAVE:test:PEMS_BAY]           (0-2): 3 x TransformerEncoderLayer(
[HSTWAVE:test:PEMS_BAY]             (self_attn): MultiheadAttention(
[HSTWAVE:test:PEMS_BAY]               (out_proj): NonDynamicallyQuantizableLinear(in_features=64, out_features=64, bias=True)
[HSTWAVE:test:PEMS_BAY]             )
[HSTWAVE:test:PEMS_BAY]             (linear1): Linear(in_features=64, out_features=256, bias=True)
[HSTWAVE:test:PEMS_BAY]             (dropout): Dropout(p=0.1, inplace=False)
[HSTWAVE:test:PEMS_BAY]             (linear2): Linear(in_features=256, out_features=64, bias=True)
[HSTWAVE:test:PEMS_BAY]             (norm1): LayerNorm((64,), eps=1e-05, elementwise_affine=True)
[HSTWAVE:test:PEMS_BAY]             (norm2): LayerNorm((64,), eps=1e-05, elementwise_affine=True)
[HSTWAVE:test:PEMS_BAY]             (dropout1): Dropout(p=0.1, inplace=False)
[HSTWAVE:test:PEMS_BAY]             (dropout2): Dropout(p=0.1, inplace=False)
[HSTWAVE:test:PEMS_BAY]           )
[HSTWAVE:test:PEMS_BAY]         )
[HSTWAVE:test:PEMS_BAY]         (multihead_attn): MultiheadAttention(
[HSTWAVE:test:PEMS_BAY]           (out_proj): NonDynamicallyQuantizableLinear(in_features=64, out_features=64, bias=True)
[HSTWAVE:test:PEMS_BAY]         )
[HSTWAVE:test:PEMS_BAY]       )
[HSTWAVE:test:PEMS_BAY]       (chgan): CHGANSimplified(
[HSTWAVE:test:PEMS_BAY]         (q_proj): Linear(in_features=64, out_features=64, bias=True)
[HSTWAVE:test:PEMS_BAY]         (k_proj): Linear(in_features=64, out_features=64, bias=True)
[HSTWAVE:test:PEMS_BAY]         (v_proj): Linear(in_features=64, out_features=64, bias=True)
[HSTWAVE:test:PEMS_BAY]         (out_proj): Linear(in_features=64, out_features=64, bias=True)
[HSTWAVE:test:PEMS_BAY]         (dropout): Dropout(p=0.1, inplace=False)
[HSTWAVE:test:PEMS_BAY]         (layer_norm): LayerNorm((64,), eps=1e-05, elementwise_affine=True)
[HSTWAVE:test:PEMS_BAY]       )
[HSTWAVE:test:PEMS_BAY]       (mswt2): MSWT(
[HSTWAVE:test:PEMS_BAY]         (gtu_scales): ModuleList(
[HSTWAVE:test:PEMS_BAY]           (0): GTU(
[HSTWAVE:test:PEMS_BAY]             (tanh): Tanh()
[HSTWAVE:test:PEMS_BAY]             (sigmoid): Sigmoid()
[HSTWAVE:test:PEMS_BAY]             (conv): CausalConv2d(64, 128, kernel_size=(1, 1), stride=(1, 1))
[HSTWAVE:test:PEMS_BAY]             (w_conv): Conv2d(64, 1, kernel_size=(1, 1), stride=(1, 1))
[HSTWAVE:test:PEMS_BAY]             (align): Align(
[HSTWAVE:test:PEMS_BAY]               (align_conv): Conv2d(64, 64, kernel_size=(1, 1), stride=(1, 1))
[HSTWAVE:test:PEMS_BAY]             )
[HSTWAVE:test:PEMS_BAY]           )
[HSTWAVE:test:PEMS_BAY]           (1): GTU(
[HSTWAVE:test:PEMS_BAY]             (tanh): Tanh()
[HSTWAVE:test:PEMS_BAY]             (sigmoid): Sigmoid()
[HSTWAVE:test:PEMS_BAY]             (conv): CausalConv2d(64, 128, kernel_size=(1, 2), stride=(1, 1))
[HSTWAVE:test:PEMS_BAY]             (w_conv): Conv2d(64, 1, kernel_size=(1, 1), stride=(1, 1))
[HSTWAVE:test:PEMS_BAY]             (align): Align(
[HSTWAVE:test:PEMS_BAY]               (align_conv): Conv2d(64, 64, kernel_size=(1, 1), stride=(1, 1))
[HSTWAVE:test:PEMS_BAY]             )
[HSTWAVE:test:PEMS_BAY]           )
[HSTWAVE:test:PEMS_BAY]           (2): GTU(
[HSTWAVE:test:PEMS_BAY]             (tanh): Tanh()
[HSTWAVE:test:PEMS_BAY]             (sigmoid): Sigmoid()
[HSTWAVE:test:PEMS_BAY]             (conv): CausalConv2d(64, 128, kernel_size=(1, 3), stride=(1, 1))
[HSTWAVE:test:PEMS_BAY]             (w_conv): Conv2d(64, 1, kernel_size=(1, 1), stride=(1, 1))
[HSTWAVE:test:PEMS_BAY]             (align): Align(
[HSTWAVE:test:PEMS_BAY]               (align_conv): Conv2d(64, 64, kernel_size=(1, 1), stride=(1, 1))
[HSTWAVE:test:PEMS_BAY]             )
[HSTWAVE:test:PEMS_BAY]           )
[HSTWAVE:test:PEMS_BAY]         )
[HSTWAVE:test:PEMS_BAY]         (transformer_layers): ModuleList(
[HSTWAVE:test:PEMS_BAY]           (0-2): 3 x TransformerEncoderLayer(
[HSTWAVE:test:PEMS_BAY]             (self_attn): MultiheadAttention(
[HSTWAVE:test:PEMS_BAY]               (out_proj): NonDynamicallyQuantizableLinear(in_features=64, out_features=64, bias=True)
[HSTWAVE:test:PEMS_BAY]             )
[HSTWAVE:test:PEMS_BAY]             (linear1): Linear(in_features=64, out_features=256, bias=True)
[HSTWAVE:test:PEMS_BAY]             (dropout): Dropout(p=0.1, inplace=False)
[HSTWAVE:test:PEMS_BAY]             (linear2): Linear(in_features=256, out_features=64, bias=True)
[HSTWAVE:test:PEMS_BAY]             (norm1): LayerNorm((64,), eps=1e-05, elementwise_affine=True)
[HSTWAVE:test:PEMS_BAY]             (norm2): LayerNorm((64,), eps=1e-05, elementwise_affine=True)
[HSTWAVE:test:PEMS_BAY]             (dropout1): Dropout(p=0.1, inplace=False)
[HSTWAVE:test:PEMS_BAY]             (dropout2): Dropout(p=0.1, inplace=False)
[HSTWAVE:test:PEMS_BAY]           )
[HSTWAVE:test:PEMS_BAY]         )
[HSTWAVE:test:PEMS_BAY]         (multihead_attn): MultiheadAttention(
[HSTWAVE:test:PEMS_BAY]           (out_proj): NonDynamicallyQuantizableLinear(in_features=64, out_features=64, bias=True)
[HSTWAVE:test:PEMS_BAY]         )
[HSTWAVE:test:PEMS_BAY]       )
[HSTWAVE:test:PEMS_BAY]       (relu): ReLU()
[HSTWAVE:test:PEMS_BAY]       (ln): LayerNorm((325, 64), eps=1e-05, elementwise_affine=True)
[HSTWAVE:test:PEMS_BAY]       (dropout): Dropout(p=0.3, inplace=False)
[HSTWAVE:test:PEMS_BAY]       (align): Linear(in_features=1, out_features=64, bias=True)
[HSTWAVE:test:PEMS_BAY]     )
[HSTWAVE:test:PEMS_BAY]     (1-2): 2 x MSDTHGTEncoderSimplified(
[HSTWAVE:test:PEMS_BAY]       (mswt1): MSWT(
[HSTWAVE:test:PEMS_BAY]         (gtu_scales): ModuleList(
[HSTWAVE:test:PEMS_BAY]           (0): GTU(
[HSTWAVE:test:PEMS_BAY]             (tanh): Tanh()
[HSTWAVE:test:PEMS_BAY]             (sigmoid): Sigmoid()
[HSTWAVE:test:PEMS_BAY]             (conv): CausalConv2d(64, 128, kernel_size=(1, 1), stride=(1, 1))
[HSTWAVE:test:PEMS_BAY]             (w_conv): Conv2d(64, 1, kernel_size=(1, 1), stride=(1, 1))
[HSTWAVE:test:PEMS_BAY]             (align): Align(
[HSTWAVE:test:PEMS_BAY]               (align_conv): Conv2d(64, 64, kernel_size=(1, 1), stride=(1, 1))
[HSTWAVE:test:PEMS_BAY]             )
[HSTWAVE:test:PEMS_BAY]           )
[HSTWAVE:test:PEMS_BAY]           (1): GTU(
[HSTWAVE:test:PEMS_BAY]             (tanh): Tanh()
[HSTWAVE:test:PEMS_BAY]             (sigmoid): Sigmoid()
[HSTWAVE:test:PEMS_BAY]             (conv): CausalConv2d(64, 128, kernel_size=(1, 2), stride=(1, 1))
[HSTWAVE:test:PEMS_BAY]             (w_conv): Conv2d(64, 1, kernel_size=(1, 1), stride=(1, 1))
[HSTWAVE:test:PEMS_BAY]             (align): Align(
[HSTWAVE:test:PEMS_BAY]               (align_conv): Conv2d(64, 64, kernel_size=(1, 1), stride=(1, 1))
[HSTWAVE:test:PEMS_BAY]             )
[HSTWAVE:test:PEMS_BAY]           )
[HSTWAVE:test:PEMS_BAY]           (2): GTU(
[HSTWAVE:test:PEMS_BAY]             (tanh): Tanh()
[HSTWAVE:test:PEMS_BAY]             (sigmoid): Sigmoid()
[HSTWAVE:test:PEMS_BAY]             (conv): CausalConv2d(64, 128, kernel_size=(1, 3), stride=(1, 1))
[HSTWAVE:test:PEMS_BAY]             (w_conv): Conv2d(64, 1, kernel_size=(1, 1), stride=(1, 1))
[HSTWAVE:test:PEMS_BAY]             (align): Align(
[HSTWAVE:test:PEMS_BAY]               (align_conv): Conv2d(64, 64, kernel_size=(1, 1), stride=(1, 1))
[HSTWAVE:test:PEMS_BAY]             )
[HSTWAVE:test:PEMS_BAY]           )
[HSTWAVE:test:PEMS_BAY]         )
[HSTWAVE:test:PEMS_BAY]         (transformer_layers): ModuleList(
[HSTWAVE:test:PEMS_BAY]           (0-2): 3 x TransformerEncoderLayer(
[HSTWAVE:test:PEMS_BAY]             (self_attn): MultiheadAttention(
[HSTWAVE:test:PEMS_BAY]               (out_proj): NonDynamicallyQuantizableLinear(in_features=64, out_features=64, bias=True)
[HSTWAVE:test:PEMS_BAY]             )
[HSTWAVE:test:PEMS_BAY]             (linear1): Linear(in_features=64, out_features=256, bias=True)
[HSTWAVE:test:PEMS_BAY]             (dropout): Dropout(p=0.1, inplace=False)
[HSTWAVE:test:PEMS_BAY]             (linear2): Linear(in_features=256, out_features=64, bias=True)
[HSTWAVE:test:PEMS_BAY]             (norm1): LayerNorm((64,), eps=1e-05, elementwise_affine=True)
[HSTWAVE:test:PEMS_BAY]             (norm2): LayerNorm((64,), eps=1e-05, elementwise_affine=True)
[HSTWAVE:test:PEMS_BAY]             (dropout1): Dropout(p=0.1, inplace=False)
[HSTWAVE:test:PEMS_BAY]             (dropout2): Dropout(p=0.1, inplace=False)
[HSTWAVE:test:PEMS_BAY]           )
[HSTWAVE:test:PEMS_BAY]         )
[HSTWAVE:test:PEMS_BAY]         (multihead_attn): MultiheadAttention(
[HSTWAVE:test:PEMS_BAY]           (out_proj): NonDynamicallyQuantizableLinear(in_features=64, out_features=64, bias=True)
[HSTWAVE:test:PEMS_BAY]         )
[HSTWAVE:test:PEMS_BAY]       )
[HSTWAVE:test:PEMS_BAY]       (chgan): CHGANSimplified(
[HSTWAVE:test:PEMS_BAY]         (q_proj): Linear(in_features=64, out_features=64, bias=True)
[HSTWAVE:test:PEMS_BAY]         (k_proj): Linear(in_features=64, out_features=64, bias=True)
[HSTWAVE:test:PEMS_BAY]         (v_proj): Linear(in_features=64, out_features=64, bias=True)
[HSTWAVE:test:PEMS_BAY]         (out_proj): Linear(in_features=64, out_features=64, bias=True)
[HSTWAVE:test:PEMS_BAY]         (dropout): Dropout(p=0.1, inplace=False)
[HSTWAVE:test:PEMS_BAY]         (layer_norm): LayerNorm((64,), eps=1e-05, elementwise_affine=True)
[HSTWAVE:test:PEMS_BAY]       )
[HSTWAVE:test:PEMS_BAY]       (mswt2): MSWT(
[HSTWAVE:test:PEMS_BAY]         (gtu_scales): ModuleList(
[HSTWAVE:test:PEMS_BAY]           (0): GTU(
[HSTWAVE:test:PEMS_BAY]             (tanh): Tanh()
[HSTWAVE:test:PEMS_BAY]             (sigmoid): Sigmoid()
[HSTWAVE:test:PEMS_BAY]             (conv): CausalConv2d(64, 128, kernel_size=(1, 1), stride=(1, 1))
[HSTWAVE:test:PEMS_BAY]             (w_conv): Conv2d(64, 1, kernel_size=(1, 1), stride=(1, 1))
[HSTWAVE:test:PEMS_BAY]             (align): Align(
[HSTWAVE:test:PEMS_BAY]               (align_conv): Conv2d(64, 64, kernel_size=(1, 1), stride=(1, 1))
[HSTWAVE:test:PEMS_BAY]             )
[HSTWAVE:test:PEMS_BAY]           )
[HSTWAVE:test:PEMS_BAY]           (1): GTU(
[HSTWAVE:test:PEMS_BAY]             (tanh): Tanh()
[HSTWAVE:test:PEMS_BAY]             (sigmoid): Sigmoid()
[HSTWAVE:test:PEMS_BAY]             (conv): CausalConv2d(64, 128, kernel_size=(1, 2), stride=(1, 1))
[HSTWAVE:test:PEMS_BAY]             (w_conv): Conv2d(64, 1, kernel_size=(1, 1), stride=(1, 1))
[HSTWAVE:test:PEMS_BAY]             (align): Align(
[HSTWAVE:test:PEMS_BAY]               (align_conv): Conv2d(64, 64, kernel_size=(1, 1), stride=(1, 1))
[HSTWAVE:test:PEMS_BAY]             )
[HSTWAVE:test:PEMS_BAY]           )
[HSTWAVE:test:PEMS_BAY]           (2): GTU(
[HSTWAVE:test:PEMS_BAY]             (tanh): Tanh()
[HSTWAVE:test:PEMS_BAY]             (sigmoid): Sigmoid()
[HSTWAVE:test:PEMS_BAY]             (conv): CausalConv2d(64, 128, kernel_size=(1, 3), stride=(1, 1))
[HSTWAVE:test:PEMS_BAY]             (w_conv): Conv2d(64, 1, kernel_size=(1, 1), stride=(1, 1))
[HSTWAVE:test:PEMS_BAY]             (align): Align(
[HSTWAVE:test:PEMS_BAY]               (align_conv): Conv2d(64, 64, kernel_size=(1, 1), stride=(1, 1))
[HSTWAVE:test:PEMS_BAY]             )
[HSTWAVE:test:PEMS_BAY]           )
[HSTWAVE:test:PEMS_BAY]         )
[HSTWAVE:test:PEMS_BAY]         (transformer_layers): ModuleList(
[HSTWAVE:test:PEMS_BAY]           (0-2): 3 x TransformerEncoderLayer(
[HSTWAVE:test:PEMS_BAY]             (self_attn): MultiheadAttention(
[HSTWAVE:test:PEMS_BAY]               (out_proj): NonDynamicallyQuantizableLinear(in_features=64, out_features=64, bias=True)
[HSTWAVE:test:PEMS_BAY]             )
[HSTWAVE:test:PEMS_BAY]             (linear1): Linear(in_features=64, out_features=256, bias=True)
[HSTWAVE:test:PEMS_BAY]             (dropout): Dropout(p=0.1, inplace=False)
[HSTWAVE:test:PEMS_BAY]             (linear2): Linear(in_features=256, out_features=64, bias=True)
[HSTWAVE:test:PEMS_BAY]             (norm1): LayerNorm((64,), eps=1e-05, elementwise_affine=True)
[HSTWAVE:test:PEMS_BAY]             (norm2): LayerNorm((64,), eps=1e-05, elementwise_affine=True)
[HSTWAVE:test:PEMS_BAY]             (dropout1): Dropout(p=0.1, inplace=False)
[HSTWAVE:test:PEMS_BAY]             (dropout2): Dropout(p=0.1, inplace=False)
[HSTWAVE:test:PEMS_BAY]           )
[HSTWAVE:test:PEMS_BAY]         )
[HSTWAVE:test:PEMS_BAY]         (multihead_attn): MultiheadAttention(
[HSTWAVE:test:PEMS_BAY]           (out_proj): NonDynamicallyQuantizableLinear(in_features=64, out_features=64, bias=True)
[HSTWAVE:test:PEMS_BAY]         )
[HSTWAVE:test:PEMS_BAY]       )
[HSTWAVE:test:PEMS_BAY]       (relu): ReLU()
[HSTWAVE:test:PEMS_BAY]       (ln): LayerNorm((325, 64), eps=1e-05, elementwise_affine=True)
[HSTWAVE:test:PEMS_BAY]       (dropout): Dropout(p=0.3, inplace=False)
[HSTWAVE:test:PEMS_BAY]       (align): Identity()
[HSTWAVE:test:PEMS_BAY]     )
[HSTWAVE:test:PEMS_BAY]   )
[HSTWAVE:test:PEMS_BAY]   (out_linear): Conv2d(192, 128, kernel_size=(1, 12), stride=(1, 1))
[HSTWAVE:test:PEMS_BAY]   (ln): Sequential(
[HSTWAVE:test:PEMS_BAY]     (0): ReLU()
[HSTWAVE:test:PEMS_BAY]     (1): LayerNorm((128,), eps=1e-05, elementwise_affine=True)
[HSTWAVE:test:PEMS_BAY]     (2): Dropout(p=0.3, inplace=False)
[HSTWAVE:test:PEMS_BAY]   )
[HSTWAVE:test:PEMS_BAY]   (final_fc): Linear(in_features=128, out_features=12, bias=True)
[HSTWAVE:test:PEMS_BAY] )
[HSTWAVE:test:PEMS_BAY] 2026-02-07 16:16:16,614 - INFO - series_tensor	torch.Size([1, 325, 12, 1])	cuda:0	True
[HSTWAVE:test:PEMS_BAY] 2026-02-07 16:16:16,614 - INFO - stg_blocks.0.mswt1.gtu_scales.0.conv.weight	torch.Size([128, 1, 1, 1])	cuda:0	True
[HSTWAVE:test:PEMS_BAY] 2026-02-07 16:16:16,614 - INFO - stg_blocks.0.mswt1.gtu_scales.0.conv.bias	torch.Size([128])	cuda:0	True
…
[LEAF:test:PEMS_BAY] 2026-02-07 16:16:09,569 - INFO - test	x: (10419, 12, 325, 1), y: (10419, 12, 325, 1)
[LEAF:test:PEMS_BAY] 2026-02-07 16:16:10,343 - INFO - StandardScaler mean: 62.73567651594296, std: 9.438173664359947
[LEAF:test:PEMS_BAY] 2026-02-07 16:16:10,343 - INFO - NoneScaler
[LEAF:test:PEMS_BAY] 2026-02-07 16:16:15,787 - INFO - Building LEAF with GraphBranch
[LEAF:test:PEMS_BAY] 2026-02-07 16:16:16,143 - INFO - LEAF model initialized with 325 nodes, hidden_dim=64, layers=7
[LEAF:test:PEMS_BAY] 2026-02-07 16:16:16,655 - INFO - LEAF(
[LEAF:test:PEMS_BAY]   (embeddings): ModuleDict(
[LEAF:test:PEMS_BAY]     (input): Linear(in_features=1, out_features=64, bias=True)
[LEAF:test:PEMS_BAY]     (node): Embedding(325, 64)
[LEAF:test:PEMS_BAY]   )
[LEAF:test:PEMS_BAY]   (backbone): GraphBranchBackbone(
[LEAF:test:PEMS_BAY]     (layers): Sequential(
[LEAF:test:PEMS_BAY]       (0): BasicLayer(
[LEAF:test:PEMS_BAY]         (layer_norm): LayerNorm((64,), eps=1e-05, elementwise_affine=True)
[LEAF:test:PEMS_BAY]         (ffn): Sequential(
[LEAF:test:PEMS_BAY]           (0): Linear(in_features=64, out_features=64, bias=True)
[LEAF:test:PEMS_BAY]           (1): Dropout(p=0.0, inplace=False)
[LEAF:test:PEMS_BAY]           (2): ReLU()
[LEAF:test:PEMS_BAY]           (3): Linear(in_features=64, out_features=64, bias=True)
[LEAF:test:PEMS_BAY]         )
[LEAF:test:PEMS_BAY]       )
[LEAF:test:PEMS_BAY]       (1): BasicLayer(
[LEAF:test:PEMS_BAY]         (layer_norm): LayerNorm((64,), eps=1e-05, elementwise_affine=True)
[LEAF:test:PEMS_BAY]         (ffn): Sequential(
[LEAF:test:PEMS_BAY]           (0): Linear(in_features=64, out_features=64, bias=True)
[LEAF:test:PEMS_BAY]           (1): Dropout(p=0.0, inplace=False)
[LEAF:test:PEMS_BAY]           (2): ReLU()
[LEAF:test:PEMS_BAY]           (3): Linear(in_features=64, out_features=64, bias=True)
[LEAF:test:PEMS_BAY]         )
[LEAF:test:PEMS_BAY]       )
[LEAF:test:PEMS_BAY]       (2): BasicLayer(
[LEAF:test:PEMS_BAY]         (layer_norm): LayerNorm((64,), eps=1e-05, elementwise_affine=True)
[LEAF:test:PEMS_BAY]         (ffn): Sequential(
[LEAF:test:PEMS_BAY]           (0): Linear(in_features=64, out_features=64, bias=True)
[LEAF:test:PEMS_BAY]           (1): Dropout(p=0.0, inplace=False)
[LEAF:test:PEMS_BAY]           (2): ReLU()
[LEAF:test:PEMS_BAY]           (3): Linear(in_features=64, out_features=64, bias=True)
[LEAF:test:PEMS_BAY]         )
[LEAF:test:PEMS_BAY]       )
[LEAF:test:PEMS_BAY]       (3): BasicLayer(
[LEAF:test:PEMS_BAY]         (layer_norm): LayerNorm((64,), eps=1e-05, elementwise_affine=True)
[LEAF:test:PEMS_BAY]         (ffn): Sequential(
[LEAF:test:PEMS_BAY]           (0): Linear(in_features=64, out_features=64, bias=True)
[LEAF:test:PEMS_BAY]           (1): Dropout(p=0.0, inplace=False)
[LEAF:test:PEMS_BAY]           (2): ReLU()
[LEAF:test:PEMS_BAY]           (3): Linear(in_features=64, out_features=64, bias=True)
[LEAF:test:PEMS_BAY]         )
[LEAF:test:PEMS_BAY]       )
[LEAF:test:PEMS_BAY]       (4): BasicLayer(
[LEAF:test:PEMS_BAY]         (layer_norm): LayerNorm((64,), eps=1e-05, elementwise_affine=True)
[LEAF:test:PEMS_BAY]         (ffn): Sequential(
[LEAF:test:PEMS_BAY]           (0): Linear(in_features=64, out_features=64, bias=True)
[LEAF:test:PEMS_BAY]           (1): Dropout(p=0.0, inplace=False)
[LEAF:test:PEMS_BAY]           (2): ReLU()
[LEAF:test:PEMS_BAY]           (3): Linear(in_features=64, out_features=64, bias=True)
[LEAF:test:PEMS_BAY]         )
[LEAF:test:PEMS_BAY]       )
[LEAF:test:PEMS_BAY]       (5): BasicLayer(
[LEAF:test:PEMS_BAY]         (layer_norm): LayerNorm((64,), eps=1e-05, elementwise_affine=True)
[SRSNet-METR_LA] GPU 0 (当前 3 个任务)
[INFO] Testing SRSNet on METR_LA...
[SRSNet:test:METR_LA] /home/wangwenrui/shk/AgentCity/Bigscity-LibCity/libcity/pipeline/pipeline.py:12: FutureWarning: In the future `np.bool` will be defined as the corresponding NumPy scalar.
[SRSNet:test:METR_LA]   if not hasattr(np, name):
[SRSNet:test:METR_LA] /home/wangwenrui/opt/m
…
[SRSNet:test:METR_LA] 2026-02-07 16:16:12,216 - INFO - StandardScaler mean: 54.40592829587626, std: 19.493739270573094
[SRSNet:test:METR_LA] 2026-02-07 16:16:12,217 - INFO - NoneScaler
[SRSNet:test:METR_LA] 2026-02-07 16:16:16,615 - INFO - SRSNet initialized with 207 nodes, input_window=12, output_window=12
[SRSNet:test:METR_LA] 2026-02-07 16:16:16,615 - INFO - Patch config: patch_len=16, stride=8, d_model=128
[SRSNet:test:METR_LA] 2026-02-07 16:16:17,280 - INFO - SRSNet(
[SRSNet:test:METR_LA]   (patch_embedding): SRS(
[SRSNet:test:METR_LA]     (padding_patch_layer): ReplicationPad1d((0, 4))
[SRSNet:test:METR_LA]     (scorer_select): Sequential(
[SRSNet:test:METR_LA]       (0): Linear(in_features=16, out_features=256, bias=True)
[SRSNet:test:METR_LA]       (1): ReLU()
[SRSNet:test:METR_LA]       (2): Linear(in_features=256, out_features=1, bias=True)
[SRSNet:test:METR_LA]     )
[SRSNet:test:METR_LA]     (scorer_shuffle): Sequential(
[SRSNet:test:METR_LA]       (0): Linear(in_features=16, out_features=256, bias=True)
[SRSNet:test:METR_LA]       (1): ReLU()
[SRSNet:test:METR_LA]       (2): Linear(in_features=256, out_features=1, bias=True)
[SRSNet:test:METR_LA]     )
[SRSNet:test:METR_LA]     (value_embedding_org): Linear(in_features=16, out_features=128, bias=False)
[SRSNet:test:METR_LA]     (value_embedding_rec): Linear(in_features=16, out_features=128, bias=False)
[SRSNet:test:METR_LA]     (position_embedding): PositionalEmbedding()
[SRSNet:test:METR_LA]     (dropout): Dropout(p=0.1, inplace=False)
[SRSNet:test:METR_LA]   )
[SRSNet:test:METR_LA]   (head): FlattenHead(
[SRSNet:test:METR_LA]     (flatten): Flatten(start_dim=-2, end_dim=-1)
[SRSNet:test:METR_LA]     (head): Linear(in_features=128, out_features=12, bias=True)
[SRSNet:test:METR_LA]     (dropout): Dropout(p=0.1, inplace=False)
[SRSNet:test:METR_LA]   )
[SRSNet:test:METR_LA]   (revin): RevIN()
[SRSNet:test:METR_LA] )
[SRSNet:test:METR_LA] 2026-02-07 16:16:17,281 - INFO - patch_embedding.alpha	torch.Size([1, 128])	cuda:0	True
[SRSNet:test:METR_LA] 2026-02-07 16:16:17,281 - INFO - patch_embedding.scorer_select.0.weight	torch.Size([256, 16])	cuda:0	True
…
[PatchSTG:test:PEMS_BAY] 2026-02-07 16:16:40,524 - INFO - Increasing sps from 2 to 3 to cover largest KDTree partition
[PatchSTG:test:PEMS_BAY] 2026-02-07 16:16:40,528 - INFO - Computed spatial indices: 384 padded nodes
[PatchSTG:test:PEMS_BAY] 2026-02-07 16:16:40,528 - INFO - Adjusted spa_patchnum to 128 (padded_nodes=384, spa_patchsize=3)
[PatchSTG:test:PEMS_BAY] 2026-02-07 16:16:40,528 - INFO - Using factors=16 (num=8, size=48)
[PatchSTG:test:PEMS_BAY] 2026-02-07 16:16:40,551 - INFO - PatchSTG initialized with 325 nodes, spatial patches: 128, temporal patches: 1
[PatchSTG:test:PEMS_BAY] 2026-02-07 16:16:41,019 - INFO - PatchSTG(
[PatchSTG:test:PEMS_BAY]   (input_st_fc): Conv2d(3, 64, kernel_size=(1, 12), stride=(1, 12))
[PatchSTG:test:PEMS_BAY]   (spa_encoder): ModuleList(
[PatchSTG:test:PEMS_BAY]     (0-4): 5 x WindowAttBlock(
[PatchSTG:test:PEMS_BAY]       (snorm1): LayerNorm((192,), eps=1e-05, elementwise_affine=True)
[PatchSTG:test:PEMS_BAY]       (sattn): Attention(
[PatchSTG:test:PEMS_BAY]         (qkv): Linear(in_features=192, out_features=576, bias=True)
[PatchSTG:test:PEMS_BAY]         (attn_drop): Dropout(p=0.1, inplace=False)
[PatchSTG:test:PEMS_BAY]         (proj): Linear(in_features=192, out_features=192, bias=True)
[PatchSTG:test:PEMS_BAY]         (proj_drop): Dropout(p=0.1, inplace=False)
[PatchSTG:test:PEMS_BAY]       )
[PatchSTG:test:PEMS_BAY]       (snorm2): LayerNorm((192,), eps=1e-05, elementwise_affine=True)
[PatchSTG:test:PEMS_BAY]       (smlp): Mlp(
[PatchSTG:test:PEMS_BAY]         (fc1): Linear(in_features=192, out_features=192, bias=True)
[PatchSTG:test:PEMS_BAY]         (act): GELU(approximate='none')
[PatchSTG:test:PEMS_BAY]         (fc2): Linear(in_features=192, out_features=192, bias=True)
[PatchSTG:test:PEMS_BAY]         (drop): Dropout(p=0.1, inplace=False)
[PatchSTG:test:PEMS_BAY]       )
[PatchSTG:test:PEMS_BAY]       (nnorm1): LayerNorm((192,), eps=1e-05, elementwise_affine=True)
[PatchSTG:test:PEMS_BAY]       (nattn): Attention(
[PatchSTG:test:PEMS_BAY]         (qkv): Linear(in_features=192, out_features=576, bias=True)
[PatchSTG:test:PEMS_BAY]         (attn_drop): Dropout(p=0.1, inplace=False)
[PatchSTG:test:PEMS_BAY]         (proj): Linear(in_features=192, out_features=192, bias=True)
[PatchSTG:test:PEMS_BAY]         (proj_drop): Dropout(p=0.1, inplace=False)
[PatchSTG:test:PEMS_BAY]       )
[PatchSTG:test:PEMS_BAY]       (nnorm2): LayerNorm((192,), eps=1e-05, elementwise_affine=True)
[PatchSTG:test:PEMS_BAY]       (nmlp): Mlp(
[PatchSTG:test:PEMS_BAY]         (fc1): Linear(in_features=192, out_features=192, bias=True)
[PatchSTG:test:PEMS_BAY]         (act): GELU(approximate='none')
[PatchSTG:test:PEMS_BAY]         (fc2): Linear(in_features=192, out_features=192, bias=True)
[PatchSTG:test:PEMS_BAY]         (drop): Dropout(p=0.1, inplace=False)
[PatchSTG:test:PEMS_BAY]       )
[PatchSTG:test:PEMS_BAY]     )
[PatchSTG:test:PEMS_BAY]   )
[PatchSTG:test:PEMS_BAY]   (regression_conv): Conv2d(192, 12, kernel_size=(1, 1), stride=(1, 1))
[PatchSTG:test:PEMS_BAY] )
[PatchSTG:test:PEMS_BAY] 2026-02-07 16:16:41,020 - INFO - node_emb	torch.Size([325, 64])	cuda:0	True
[PatchSTG:test:PEMS_BAY] 2026-02-07 16:16:41,020 - INFO - time_in_day_emb	torch.Size([96, 32])	cuda:0	True
[PatchSTG:test:PEMS_BAY] 2026-02-07 16:16:41,020 - INFO - day_in_week_emb	torch.Size([7, 32])	cuda:0	True
[PatchSTG:test:PEMS_BAY] 2026-02-07 16:16:41,020 - INFO - input_st_fc.weight	torch.Size([64, 3, 1, 12])	cuda:0	True
…
[PatchSTG:test:PEMS_BAY] 2026-02-07 16:16:41,024 - INFO - spa_encoder.4.snorm2.bias	torch.Size([192])	cuda:0	True
[PatchSTG:test:PEMS_BAY] 2026-02-07 16:16:41,024 - INFO - spa_encoder.4.smlp.fc1.weight	torch.Size([192, 192])	cuda:0	True
[PatchSTG:test:PEMS_BAY] 2026-02-07 16:16:41,024 - INFO - spa_encoder.4.smlp.fc1.bias	torch.Size([192])	cuda:0	True
[PatchSTG:test:PEMS_BAY] 2026-02-07 16:16:41,024 - INFO - spa_encoder.4.smlp.fc2.weight	torch.Size([192, 192])	cuda:0	True
[PatchSTG:test:PEMS_BAY] 2026-02-07 16:16:41,024 - INFO - spa_encoder.4.smlp.fc2.bias	torch.Size([192])	cuda:0	True
[LEAF:test:PEMS_BAY]         (ffn): Sequential(
[LEAF:test:PEMS_BAY]           (0): Linear(in_features=64, out_features=64, bias=True)
[LEAF:test:PEMS_BAY]           (1): Dropout(p=0.0, inplace=False)
[LEAF:test:PEMS_BAY]           (2): ReLU()
[LEAF:test:PEMS_BAY]           (3): Linear(in_features=64, out_features=64, bias=True)
[LEAF:test:PEMS_BAY]         )
[LEAF:test:PEMS_BAY]       )
[LEAF:test:PEMS_BAY]       (6): BasicLayer(
[LEAF:test:PEMS_BAY]         (layer_norm): LayerNorm((64,), eps=1e-05, elementwise_affine=True)
[LEAF:test:PEMS_BAY]         (ffn): Sequential(
[LEAF:test:PEMS_BAY]           (0): Linear(in_features=64, out_features=64, bias=True)
[LEAF:test:PEMS_BAY]           (1): Dropout(p=0.0, inplace=False)
[LEAF:test:PEMS_BAY]           (2): ReLU()
[LEAF:test:PEMS_BAY]           (3): Linear(in_features=64, out_features=64, bias=True)
[LEAF:test:PEMS_BAY]         )
[LEAF:test:PEMS_BAY]       )
[LEAF:test:PEMS_BAY]     )
[LEAF:test:PEMS_BAY]   )
[LEAF:test:PEMS_BAY]   (output_layer): Linear(in_features=768, out_features=12, bias=True)
[LEAF:test:PEMS_BAY] )
[LEAF:test:PEMS_BAY] 2026-02-07 16:16:16,657 - INFO - embeddings.input.weight	torch.Size([64, 1])	cuda:0	True
[LEAF:test:PEMS_BAY] 2026-02-07 16:16:16,657 - INFO - embeddings.input.bias	torch.Size([64])	cuda:0	True
[LEAF:test:PEMS_BAY] 2026-02-07 16:16:16,657 - INFO - embeddings.node.weight	torch.Size([325, 64])	cuda:0	True
[LEAF:test:PEMS_BAY] 2026-02-07 16:16:16,657 - INFO - backbone.layers.0.layer_norm.weight	torch.Size([64])	cuda:0	True
…
